trained_model.pth (torch, 124843 bytes, 12 tensors)

backbone.0.weight f4 [128, 94]
0.26373348 0.03342536 -0.00043357338 0.11985695 0.14411262 0.10385833 -0.0047311448 0.073442794
0.1303064 -0.038620874 0.0232397 -0.19723909 0.13624114 0.0500384 -0.51227534 -0.056848735
-0.24631204 -0.28201512 -0.5313946 -0.23014706 -0.2976198 -0.062024634 -0.04220145 0.23210484
-0.024223918 -0.14468306 0.06221322 -0.09579118 -0.03605672 -0.06912214 0.026839694 0.37142688
0.0364269 0.32114395 0.06087967 0.09709068 0.36411119 -0.32642648 -0.04335949 0.56376475
0.23881586 0.2924401 0.30695045 0.0039473255 0.0915095 -0.020087993 0.44771293 0.25964162
0.23709688 0.20591111 0.26264215 0.30116174 0.55101526 0.18033892 -0.09456144 0.25869438
0.08069728 -0.030870961 0.083927944 0.10652778 -0.1475305 0.07138052 0.37895122 -0.0835969
0.057490204 0.0385875 -0.71181667 0.2929422 0.63267505 0.082382225 -0.22801146 0.34269005
0.25840518 -0.35445708 0.022178607 0.05335435 0.36153662 0.016190367 0.041993823 -0.04127349
0.05768464 -0.04370245 0.13403282 0.05511033 0.027480774 -0.022546766 -0.5017862 0.30916643
0.20916755 0.16650979 -0.025376244 0.4720905 0.39125997 0.25426707 -0.16711941 -0.1532319
0.19425964 -0.11075105 -0.095744565 0.17267323 -0.07390587 -0.40541193 -0.036709514 -0.26235077
0.054757815 -0.37882307 0.14726514 -0.01241616 -0.22015658 -0.0456893 -0.09768872 0.112743944
0.28434855 0.21292152 -0.07787807 0.13511704 0.3642174 0.07250516 -0.28980374 0.0758404
-0.4862176 -0.15627952 -0.40724754 -0.29372784 -0.12560326 -0.1577703 -0.122091964 -0.26811942
0.04040549 0.0146457525 -0.43175653 -0.3222441 -0.03830205 0.22468075 -0.19603631 0.0932342
-0.18462802 0.07666231 0.03302021 0.057328667 0.18649419 -0.07165028 0.049964655 0.107749425
-0.13318941 -0.22125399 0.2582089 -0.010766977 -0.23301515 -0.21735457 0.25750846 0.19063099
-0.0755566 -0.44058108 -0.07420048 0.08812125 -0.15667029 -0.09919205 0.17294669 -0.25978515
-0.05108761 -0.3797466 0.3990317 -0.1896084 0.21706276 -0.5068205 0.31559032 0.13936126
0.085361265 0.04013591 -0.34318867 0.3090993 -0.34814832 -0.022012912 0.086498946 -0.14120224
-0.06061179 -0.09859065 -0.14882037 -0.07690872 0.13866387 -0.8691727 0.057025302 0.49377954
0.2384816 0.12615971 -0.22118726 -0.10384999 -0.03038263 -0.0882848 0.24832748 0.00034499593
0.18388546 -0.09823564 0.08384826 -0.29369578 -0.024325125 0.10653773 0.011383995 -0.038912367
0.15716153 0.19135672 -0.0811834 0.13820447 0.39571202 0.070736684 0.33378455 -0.28048685
-0.09033801 -0.3743905 0.16134316 -0.13280687 0.08560583 -0.07276249 -0.12498279 -0.24188451
0.15425457 0.34314045 -0.31788296 -0.33743337 -0.060224563 -0.07156583 -0.10025493 -0.029558953
-0.14409553 0.00958885 0.3407468 -0.0087610055 -0.21435878 0.22979458 0.10487865 -0.21099487
-0.11190956 -0.2654763 0.1666471 -0.13065094 0.066180944 0.2733001 -0.0904379 0.13793293
-0.13322748 -0.43783382 -0.0960918 0.13468224 0.002073613 0.28481084 -0.1342179 -0.40957078
-0.33167386 -0.09906921 -0.08440304 0.07923798 0.016178356 -0.40119386 0.3075315 -0.23222928
00000000: 1308 873e 08e9 083d 3c51 e3b9 9077 f53d
00000010: 4292 133e adb3 d43d b807 9bbb 2d69 963d
00000020: 0a6f 053e ec30 1ebd 2f61 be3c 0bf9 49be
00000030: cc82 0b3e 11f5 4c3d 7a24 03bf 38da 68bd
00000040: 3939 7cbe 4964 90be 7a09 08bf acab 6bbe
00000050: 9f61 98be 8b0d 7ebd 6ddb 2cbd e4ac 6d3e
00000060: 3d71 c6bc cc27 14be 4ad3 7e3d 2b2e c4bd
00000070: 36b0 13bd e98f 8dbd ebde db3c aa2b be3e
00000080: 6034 153d fb6c a43e f65c 793d 7ad7 c63d
00000090: c86c ba3e 5f21 a7be b899 31bd e352 103f
000000a0: 258c 743e b5ba 953e 9c28 9d3e 9158 813b
000000b0: 5569 bb3d 938f a4bc a13a e53e bfef 843e
000000c0: 86c9 723e 5dda 523e 0879 863e df31 9a3e
000000d0: 560f 0d3f c4aa 383e 6ea9 c1bd 9773 843e
000000e0: 9e44 a53d 19e5 fcbc 6ae2 ab3d 3d2b da3d
000000f0: 3c12 17be f32f 923d e505 c23e da34 abbd
00000100: d97a 6b3d ed0d 1e3d 9e39 36bf 85fc 953e
00000110: fef6 213f 03b8 a83d d67b 69be 1275 af3e
00000120: af4d 843e 667b b5be e9af b53c 178a 5a3d
00000130: 541b b93e a9a1 843c b701 2c3d 640e 29bd
00000140: bb46 6c3d 5701 33bd e63f 093e 5fbb 613d
00000150: 5c1f e13c ffb3 b8bc 0f75 00bf 104b 9e3e
00000160: 0530 563e 8b81 2a3e d7e1 cfbc d9b5 f13e
00000170: 3a53 c83e 4b2f 823e 5a21 2bbe d3e8 1cbe
00000180: 00ec 463e 72d1 e2bd ba15 c4bd 40d1 303e
00000190: f65b 97bd 2792 cfbe b75c 16bd d752 86be
000001a0: bb49 603d 19f5 c1be accc 163e 266d 4bbc
000001b0: ba70 61be b424 3bbd 0611 c8bd 4ce6 e63d
000001c0: 2296 913e 1908 5a3e 8a7e 9fbd 1f5c 0a3e
000001d0: b47a ba3e 967d 943d 2861 94be 3652 9b3d
000001e0: 83f1 f8be bd07 20be c082 d0be 7f63 96be
000001f0: 249e 00be 8a8e 21be 5a0b fabd f346 89be
00000200: 3a80 253d bdf4 6f3c 310f ddbe 2efd a4be
00000210: 9ce2 1cbd b612 663e bebd 48be 92f1 be3d
00000220: 210f 3dbe 2101 9d3d 3340 073d 77d1 6a3d
00000230: 55f8 3e3e 62bd 92bd bda7 4c3d bbab dc3d
00000240: ce62 08be 6890 62be f533 843e fa67 30bc
00000250: 869b 6ebe 3292 5ebe 26d8 833e c534 433e
00000260: 6bbd 9abd d893 e1be 6cf6 97bd ea78 b43d
00000270: 2d6e 20be 3425 cbbd f018 313e 8f02 85be
00000280: 3e41 51bd 256e c2be e24d cc3e b428 42be
00000290: b345 5e3e fdbe 01bf 0e95 a13e b8b4 0e3e
000002a0: e3d1 ae3d 8d65 243d 6db6 afbe 4342 9e3e
000002b0: 7f40 b2be 6c54 b4bc 5c26 b13d 5297 10be
000002c0: 1144 78bd e5e9 c9bd 5e64 18be 5282 9dbd
000002d0: e7fd 0d3e 1a82 5ebf 5d93 693d acd0 fc3e
000002e0: 8534 743e 0330 013e ea7e 62be 4eaf d4bd
000002f0: fee4 f8bc a9ce b4bd 8f49 7e3e 92e0 b439
00000300: 784c 3c3e c42f c9bd a3b8 ab3d 4b5f 96be
00000310: 7c45 c7bc 7430 da3d f083 3a3c 9362 1fbd
00000320: f4ee 203e 04f3 433e 7b43 a6bd 7985 0d3e
00000330: c49a ca3e 65de 903d cfe5 aa3e f99b 8fbe
00000340: 2203 b9bd 1db0 bfbe 2437 253e 86fe 07be
00000350: 1c52 af3d 8004 95bd faf6 ffbd 93b0 77be
00000360: e9f4 1d3e 1bb0 af3e 8ec1 a2be 11c4 acbe
00000370: 08ae 76bd 1b91 92bd 7552 cdbd 9e25 f2bc
00000380: c78d 13be 8d1a 1d3c 5d76 ae3e 528a 0fbc
00000390: de80 5bbe 454f 6b3e 9eca d63d 0a0f 58be
000003a0: d730 e5bd 82ec 87be 8aa5 2a3e 5cc9 05be
000003b0: e089 873d feed 8b3e 8137 b9bd 4a3e 0d3e
000003c0: c96c 08be c12b e0be c7cb c4bd 24ea 093e
000003d0: 74e5 073b bad2 913e 6b70 09be 43b3 d1be
000003e0: 28d1 a9be cce4 cabd 80db acbd 8647 a23d
000003f0: 7988 843c 4869 cdbe c574 9d3e 83cd 6dbe

backbone.0.bias f4 [128]
0.0992196 0.028121233 -0.23613222 -0.06308466 -0.040160574 0.00508783 -0.10100594 -0.20210718
-0.09552965 0.27186602 0.10745011 0.017952148 -0.13539466 -0.1629861 0.18632784 -0.0610494
-0.10821105 0.06430439 -0.016073912 0.042479377 0.30292907 -0.23384106 -0.057161495 0.22611283
-0.16384539 0.06403903 0.09170171 -0.10613193 -0.1930081 -0.30032504 -0.33451816 -0.23343818
-0.052407816 -0.28519478 0.007464509 -0.16066916 0.08835613 -0.16731712 -0.031243343 -0.25947765
0.098054014 -0.01289491 -0.261551 0.24814911 0.06123891 0.12424556 -0.11562039 0.038855445
0.53460675 -0.102505095 0.024359535 0.044180423 -0.16359329 0.0032948628 -0.036197428 -0.066576384
-0.002565275 -0.054404132 0.32653856 -0.12614451 -0.06458898 0.063595705 -0.13109921 -0.058887523
0.24203233 0.5099112 -0.22766383 -0.15291329 0.08365268 0.56778824 0.40138572 -0.25167355
0.09872143 -0.18970145 -0.028596776 0.008234045 -0.06402454 0.041898023 -0.16152741 -0.03722527
-0.21950449 -0.19108422 -0.06091859 0.20088133 -0.3065959 -0.05154258 0.043954615 -0.073564686
-0.19773948 -0.2070028 -0.27028254 0.11409633 0.23026882 -0.03718691 0.022099484 -0.14848305
0.014030975 -0.2653024 -0.16363677 -0.15107663 -0.2986363 -0.21088241 0.02797112 -0.023652788
-0.08265601 -0.23779067 -0.22131577 0.07917919 0.1485143 -0.043400936 -0.032749023 -0.37846547
0.15828028 0.21446197 -0.05226045 -0.15075463 -0.2198149 0.034275007 0.050188974 -0.2012323
0.07769905 0.26437086 -0.06923925 -0.17178139 0.050862122 -0.12480306 0.0375343 -0.009031633
00000000: a533 cb3d 805e e63c a5cc 71be 8832 81bd
00000010: 6a7f 24bd d0b7 a63b 34dc cebd 2ff5 4ebe
00000020: 0da5 c3bd 0632 8b3e ce0e dc3d 6210 933c
00000030: e6a4 0abe d4e5 26be bacc 3e3e f00e 7abd
00000040: c19d ddbd 05b2 833d 70ad 83bc dbfe 2d3d
00000050: 8519 9b3e 0874 6fbe 2c22 6abd 1f8a 673e
00000060: 16c7 27be e526 833d 1bce bb3d b35b d9bd
00000070: eaa3 45be 34c4 99be f745 abbe 6b0a 6fbe
00000080: 94a9 56bd 0d05 92be d798 f43b 7586 24be
00000090: 0ff4 b43d 2e55 2bbe 0af2 ffbc 41da 84be
000000a0: 8bd0 c83d 2c45 53bc 03ea 85be cd1a 7e3e
000000b0: a7d5 7a3d 7574 fe3d 62ca ecbd e326 1f3d
000000c0: fddb 083f 31ee d1bd a68d c73c 88f6 343d
000000d0: 0085 27be a0ee 573b c143 14bd 3359 88bd
000000e0: 2c1e 28bb ded6 5ebd 1030 a73e 072c 01be
000000f0: 3a47 84bd 773e 823d df3e 06be 0b34 71bd
00000100: 53d7 773e 8a89 023f b520 69be 4d95 1cbe
00000110: 1952 ab3d 925a 113f 6e82 cd3e 5bdb 80be
00000120: 762e ca3d 1941 42be c943 eabc 16e8 063c
00000130: 4c1f 83bd 439d 2b3d 7167 25be 8679 18bd
00000140: c9c5 60be 95ab 43be c585 79bd d6b3 4d3e
00000150: 23fa 9cbe 501e 53bd c109 343d 15a9 96bd
00000160: 387c 4abe 8bf8 53be 7962 8abe 56ab e93d
00000170: 97cb 6b3e 4d51 18bd fa09 b53c f10b 18be
00000180: 2de2 653c b7d5 87be 6690 27be d5b3 1abe
00000190: dbe6 98be 8ff1 57be b123 e53c 7ec3 c1bc
000001a0: 8e47 a9bd 667f 73be 9aa0 62be b328 a23d
000001b0: 2214 183e 2ec5 31bd d723 06bd 3ac6 c1be
000001c0: 3a14 223e eb9b 5b3e 0e0f 56bd 6c5f 1abe
000001d0: 2817 61be f363 0c3d f492 4d3d d70f 4ebe
000001e0: ae20 9f3d 9e5b 873e 4fcd 8dbd 76e7 2fbe
000001f0: cd54 503d bf98 ffbd 91bd 193d 6af9 13bc

backbone.2.weight f4 [128]
0.75531596 0.6167939 0.7156741 0.80858845 0.7682877 0.778 0.979993 0.70193106
0.7156042 0.4961889 1.0316904 1.3541523 0.35717073 0.7864634 0.7606231 0.8481504
0.610955 0.5826163 0.736324 0.648207 0.703902 1.1623073 1.0869575 1.4621261
1.1048042 0.9387277 0.6838145 1.332584 0.8033488 0.67577565 1.2110349 0.7325395
1.0324382 1.3528037 1.1005349 0.779499 0.9554264 1.1523719 0.58308107 0.9218744
0.34122953 0.6928489 1.172197 0.80785084 0.5839888 0.6681246 0.49425074 0.66040206
0.78238076 0.62887096 0.3856825 1.0465448 0.5272538 0.41053063 0.78744847 0.46448955
0.38833126 0.6799821 0.5902081 0.6002674 0.42688185 0.98904604 0.52271885 1.1773738
0.6527116 0.7055102 0.7979594 0.67487115 0.8636162 0.64128554 0.39795268 0.8590616
0.5715807 0.99976766 0.4960618 0.40460426 0.69236207 0.52425164 1.1967831 0.40267813
0.9619502 0.86188483 1.3585488 0.59521574 1.3282725 0.89247644 0.7936948 0.78585196
0.7569379 0.55009604 0.85778385 0.667128 0.7364691 0.6517881 0.48459506 1.3586929
0.57126904 0.7199839 1.0427778 0.7769113 0.5345464 0.68623424 0.37319782 0.8809864
1.1587449 0.80049896 0.7018862 0.60132116 0.67078066 0.6103032 0.54887176 1.1740451
0.8080393 0.85090387 0.57113814 0.7946709 1.4903635 0.9527434 0.23690718 0.9465918
0.52957225 0.7128505 0.81128895 0.8250047 0.51020145 0.85739225 1.2201098 0.7160182
00000000: 635c 413f 34e6 1d3f 6b36 373f a7ff 4e3f
00000010: 81ae 443f 022b 473f d2e0 7a3f c1b1 333f
00000020: d631 373f 790c fe3e 6e0e 843f dd54 ad3f
00000030: 15df b63e aa55 493f 32b8 423f 6220 593f
00000040: 8c67 1c3f 5826 153f bb7f 3c3f e5f0 253f
00000050: ec32 343f 7cc6 943f 6c21 8b3f f326 bb3f
00000060: 396a 8d3f 7550 703f 780e 2f3f 1d92 aa3f
00000070: 44a8 4d3f a2ff 2c3f 3103 9b3f b587 3b3f
00000080: ef26 843f ac28 ad3f 54de 8c3f 3f8d 473f
00000090: d396 743f ec80 933f cd44 153f f6ff 6b3f
000000a0: a3b5 ae3e 8c5e 313f 8d0a 963f 50cf 4e3f
000000b0: 4a80 153f 370a 2b3f 6f0e fd3e 1c10 293f
000000c0: 1b4a 483f b0fd 203f 2d78 c53e 2ef5 853f
000000d0: 1bfa 063f 1231 d23e 3996 493f 93d1 ed3e
000000e0: 5bd3 c63e 4f13 2e3f e117 173f 20ab 193f
000000f0: 4290 da3e 1f32 7d3f e7d0 053f 2fb4 963f
00000100: 1b18 273f 519c 343f 1147 4c3f 5bc4 2c3f
00000110: f415 5d3f 4a2b 243f 74c0 cb3e 76eb 5b3f
00000120: 1d53 123f c6f0 7f3f d0fb fd3e 4a28 cf3e
00000130: a43e 313f 5b35 063f 3030 993f d42b ce3e
00000140: 5e42 763f 7ca4 5c3f ede4 ad3f 0f60 183f
00000150: d504 aa3f 5679 643f 952f 4b3f 982d 493f
00000160: afc6 413f 18d3 0c3f b997 5b3f e7c8 2a3f
00000170: 3d89 3c3f 96db 263f d81c f83e a6e9 ad3f
00000180: b03e 123f dd50 383f be79 853f a9e3 463f
00000190: 08d8 083f 0cad 2f3f c913 bf3e 5388 613f
000001a0: c151 943f 80ed 4c3f d0ae 333f 2ff0 193f
000001b0: 48b8 2b3f d53c 1c3f dc82 0c3f 1c47 963f
000001c0: aadb 4e3f d6d4 593f 1c36 123f 8d6f 4b3f
000001d0: 3bc4 be3f fee6 733f cc97 723e d753 723f
000001e0: 0c92 073f 5f7d 363f a2b0 4f3f 8233 533f
000001f0: 909c 023f 0f7e 5b3f 8f2c 9c3f f84c 373f

backbone.2.bias f4 [128]
0.024012886 0.18567353 0.14276767 -0.14344068 0.04540323 0.15289071 -0.00446948 -0.22934532
0.14566523 -0.12686229 0.08723632 0.27832302 0.12889491 -0.08619179 0.1445989 -0.10302136
-0.012994346 -0.014613423 0.08587345 0.25848678 0.111533806 -0.22249258 -0.18451963 0.29497296
0.24440472 0.08198363 0.16633132 0.04685859 0.012771327 -0.20801546 -0.24789353 -0.14353554
-0.09010246 -0.2789708 -0.08142479 -0.11144518 0.0669825 -0.18275572 -0.12284753 -0.20594099
-0.25114518 0.09743923 -0.2077053 0.3951507 0.10360981 -0.11938763 0.3138865 0.0152611565
-0.17440462 0.028859997 0.17233983 0.04574584 0.0026545692 0.010600251 0.11067304 0.26224974
5.9000424e-05 0.2238858 0.018941984 -0.09147381 0.18456544 0.28004107 -0.0020512578 0.060329292
-0.06481513 -0.27636102 -0.10536239 0.07826514 -0.06015781 -0.2918876 0.091038436 -0.24515742
0.060728755 -0.053438786 0.18646102 -0.17267843 0.09764074 0.08319069 -0.04682699 0.15264322
-0.12932414 -0.1813651 0.24044912 -0.034280665 -0.12507339 -0.058757562 0.0320901 0.29673725
-0.24830997 0.10493986 -0.08546836 0.04203856 0.19113834 0.186585 0.088669054 0.2696565
-0.092847824 -0.073623694 -0.06705396 0.063484155 0.12693469 -0.16808324 0.21706676 -0.19051257
-0.07271172 0.005451528 -0.26288256 0.13942206 0.19806942 -0.12465988 0.26642403 -0.18531196
0.1793975 0.12720099 -0.042189956 0.20291236 -0.6775021 0.14715034 0.19091919 -0.2998428
-0.11382605 0.21964748 0.026617413 -0.10997061 -0.12681444 -0.40758586 -0.048204776 0.07718108
00000000: acb6 c43c 3421 3e3e b031 123e 1de2 12be
00000010: bdf8 393d 628f 1c3e b774 92bb 80d9 6abe
00000020: 4429 153e 30e8 01be f5a8 b23d 5b80 8e3e
00000030: 07fd 033e 5285 b0bd bc11 143e ddfc d2bd
00000040: 3de6 54bc 236d 6fbc 6bde af3d 6158 843e
00000050: d66b e43d 18d5 63be b7f2 3cbe b206 973e
00000060: 3b45 7a3e 09e7 a73d c252 2a3e cbee 3f3d
00000070: d43e 513c 0102 55be cdd7 7dbe fbfa 12be
00000080: a387 b8bd 43d5 8ebe 0ac2 a6bd 5f3d e4bd
00000090: 1f2e 893d 5124 3bbe 7c97 fbbd 32e2 52be
000000a0: 1a96 80be 388e c73d b3b0 54be 3151 ca3e
000000b0: 6131 d43d 8081 f4bd bbb5 a03e ee09 7a3c
000000c0: 2097 32be cd6b ec3c da79 303e fd5f 3b3d
000000d0: 48f8 2d3b adac 2d3c 8ca8 e23d 9945 863e
000000e0: 3977 7738 5242 653e 382c 9b3c 9f56 bbbd
000000f0: b9fe 3c3e 8b61 8f3e 656e 06bb d91b 773d
00000100: cbbd 84bd 317f 8dbe 3dc8 d7bd 7949 a03d
00000110: 0968 76bd 4b72 95be 5c72 ba3d 8c0a 7bbe
00000120: b7be 783d a1e2 5abd a3ef 3e3e 9dd2 30be
00000130: def7 c73d e15f aa3d a8cd 3fbd 814e 1c3e
00000140: 8c6d 04be c6b7 39be 4b38 763e e269 0cbd
00000150: 3d13 00be c5ab 70bd e970 033d f2ed 973e
00000160: f844 7ebe b6ea d63d 090a afbd a030 2c3d
00000170: c5b9 433e 2310 3f3e 1f98 b53d 6b10 8a3e
00000180: 0027 bebd 05c8 96bd 9653 89bd fb03 823d
00000190: 2bfb 013e 031e 2cbe c046 5e3e ba15 43be
000001a0: e2e9 94bd bba2 b23b 8b98 86be a8c4 0e3e
000001b0: b6d2 4a3e ae4d ffbd bb68 883e 6bc2 3dbe
000001c0: fab3 373e fa40 023e 60cf 2cbd 42c8 4f3e
000001d0: c770 2dbf 94ae 163e 5280 433e ff84 99be
000001e0: a21d e9bd 45eb 603e c30c da3c 4538 e1bd
000001f0: a5db 01be 18af d0be 5f72 45bd 1d11 9e3d

backbone.3.weight f4 [128, 128]
-0.32960188 0.22351669 0.30413064 -0.13243991 -0.09695487 0.013882124 -0.09347607 -0.09305056
-0.003729285 0.0003962485 0.6132474 -0.2097359 0.1160458 0.3050521 -0.030857995 -0.13394277
0.5556907 0.10370169 0.045784038 0.16210456 0.20144284 0.024914797 0.25924394 0.290327
-0.087795936 -0.07910763 0.36300686 0.22684644 0.17835121 0.05994238 -0.06286018 -0.056757078
0.0617309 0.720398 0.014363135 0.17936617 0.19193083 0.08141925 0.1962758 0.2095456
-0.10402746 0.08828072 0.1533181 0.08978264 0.25413767 -0.30063072 -0.373691 0.16684052
-0.027401667 0.21922085 0.04111945 0.1798862 0.25045025 -0.027741572 0.18838608 0.15186283
-0.069063105 0.12602876 -0.09575103 0.2369295 -0.20403449 0.2004598 -0.08579603 0.17328392
0.12023789 0.006708417 0.05380693 -0.039966263 -0.09286744 -0.29046577 0.24915855 0.25515166
-0.09121948 -0.07276544 0.1325444 -0.14227389 0.15587074 0.08838069 0.06605436 0.30318108
0.27902505 0.24242674 0.23834224 0.12405498 0.43163902 -0.09613745 0.20793463 -0.077906676
-0.07841741 0.072844796 0.031458274 -0.17560467 -0.22057453 0.1624782 -0.14028169 -0.17651108
0.14983146 0.41828993 0.3841379 0.0628659 0.23611127 0.14423619 0.019840503 -0.19687045
0.200127 0.24520573 -0.17789732 0.2677856 0.041684434 -0.10275763 0.23855904 0.26129737
-0.022540301 0.08095448 -0.23102376 -0.03871234 0.24654217 0.1893262 0.06696097 0.12200387
-0.41631585 -0.06068447 0.08719559 0.101997994 0.3464395 0.23646371 -0.030699538 0.19854924
-0.42765176 -0.22539403 0.10250075 -0.0017739817 -0.35833153 0.058566846 0.13634935 0.16115189
-0.024220033 -0.1387339 -0.09342057 -0.004161336 0.023286074 -0.30093995 0.37323275 0.037227977
-0.33997694 -0.31857902 0.16457012 0.016347906 -0.35213402 0.2838105 -0.09003017 -0.1382667
0.5853807 0.43130955 0.03411946 0.059074216 0.029741254 0.08894906 0.18143833 0.12490604
0.20234592 0.24396987 -0.17252266 0.42896333 0.27171168 0.6079388 -0.2788969 0.32876635
0.08302972 0.038073134 -0.107818715 0.14159998 -0.20595273 0.17767087 0.14937723 0.2052916
-0.2748353 -0.13070413 -0.34578896 0.11529846 0.23032747 -0.05120696 -0.006354452 -0.2953887
-0.2192047 0.15824491 -0.37613246 -0.08187642 0.11774516 -0.1992989 -0.1886307 0.13833614
-0.20847294 -0.123144925 -0.1035845 0.10083735 -0.08109981 -0.1600804 -0.1988032 0.4410749
0.111313395 0.26450804 -0.31195223 -0.10075716 0.3602137 -0.15747271 0.048284244 -0.23534217
-0.0019896717 0.1253106 0.083476715 -0.013698349 0.14022027 0.4055325 0.010269111 0.028009215
-0.07747072 -0.012528476 0.040910922 -0.035606887 -0.35845745 -0.2920366 0.11077495 0.15704244
0.05929432 -0.20346089 0.35987762 0.104136914 0.11979086 0.28064135 -0.2712663 -0.2930804
0.113853596 0.17318745 0.017780118 0.31370768 0.2123975 0.24033909 -0.096309945 0.1667032
0.024896873 0.10289503 -0.1933196 -0.057740536 0.10157179 0.2416437 -0.35115233 -0.045215234
0.10825025 -0.3261367 0.29530147 0.022963502 -0.24429412 -0.19161756 0.16286255 0.15929691
00000000: 94c1 a8be 8fe1 643e 03b7 9b3e 549e 07be
00000010: 4690 c6bd d971 633c 6270 bfbd 4b91 bebd
00000020: 0567 74bb 93bf cf39 c8fd 1c3f 02c5 56be
00000030: 6ca9 ed3d ca2f 9c3e e8c9 fcbc 4b28 09be
00000040: bf41 0e3f 8d61 d43d 0b88 3b3d bdfe 253e
00000050: 0847 4e3e 1e1a cc3c 9fbb 843e bea5 943e
00000060: 5bce b3bd 2e03 a2bd 09dc b93e 6f4a 683e
00000070: b3a1 363e 2486 753d d7bc 80bd 1c7a 68bd
00000080: 8ad9 7c3d 016c 383f 5b53 6b3c c4ab 373e
00000090: 8489 443e 23bf a63d 86fc 483e 1f93 563e
000000a0: 590c d5bd 86cc b43d 6cff 1c3e f6df b73d
000000b0: 551e 823e 45ec 99be 6d54 bfbe 3ed8 2a3e
000000c0: 7679 e0bc 6e7b 603e de6c 283d 1734 383e
000000d0: 043b 803e 4b42 e3bc 48e8 403e ee81 1b3e
000000e0: f570 8dbd af0d 013e 1e19 c4bd a69d 723e
000000f0: 6bee 50be 5545 4d3e d4b5 afbd 5771 313e
00000100: 483f f63d 48d2 db3b a864 5c3d aab3 23bd
00000110: 4931 bebd eeb7 94be 6b23 7f3e 3da3 823e
00000120: 47d1 babd 0c06 95bd b8b9 073e 3fb0 11be
00000130: 949c 1f3e ef00 b53d 8247 873d 8d3a 9b3e
00000140: 5fdc 8e3e b73e 783e fd0f 743e 8a10 fe3d
00000150: caff dc3e b6e3 c4bd d1ec 543e 898d 9fbd
00000160: 4f99 a0bd a72f 953d 64da 003d b6d1 33be
00000170: 4ade 61be af60 263e 01a6 0fbe 52bf 34be
00000180: 6b6d 193e 192a d63e b9ad c43e d6bf 803d
00000190: 27c7 713e a7b2 133e 8d88 a23c 6898 49be
000001a0: 18ee 4c3e 3617 7b3e b72a 36be 321b 893e
000001b0: 4cbd 2a3d 9872 d2bd d248 743e c5c8 853e
000001c0: 70a6 b8bc 76cb a53d 7e91 6cbe d590 1ebd
000001d0: 8d75 7c3e bade 413e d522 893d 2add f93d
000001e0: 5a27 d5be 4790 78bd 9a93 b23d 53e4 d03d
000001f0: 8560 b13e 8b23 723e 997d fbbc 7e50 4b3e
00000200: 2cf5 dabe b1cd 66be eaeb d13d f384 e8ba
00000210: 3b77 b7be cae3 6f3d 2a9f 0b3e 0005 253e
00000220: 1769 c6bc 4210 0ebe 4953 bfbd d15b 88bb
00000230: 70c2 be3c cd14 9abe 5d18 bf3e 5d7c 183d
00000240: 7511 aebe ca1c a3be 1285 283e 0bec 853c
00000250: e94a b4be 9c4f 913e bd61 b8bd c995 0dbe
00000260: 82db 153f 9bd4 dc3e d9c0 0b3d cef7 713d
00000270: eea3 f33c ed2a b63d f8ca 393e bdce ff3d
00000280: c533 4f3e 3dd3 793e c8a9 30be 15a1 db3e
00000290: cb1d 8b3e e1a1 1b3f 93cb 8ebe 1054 a83e
000002a0: 7c0b aa3d 93f2 1b3d 0fd0 dcbd 96ff 103e
000002b0: 46e5 52be 5aef 353e 58f6 183e f637 523e
000002c0: 36b7 8cbe 4ed7 05be 400b b1be 9921 ec3d
000002d0: f7da 6b3e 64be 51bd 0239 d0bb 303d 97be
000002e0: 3277 60be f40a 223e 6f94 c0be d3ae a7bd
000002f0: 6024 f13d 0315 4cbe 6828 41be fda7 0d3e
00000300: ee79 55be 6833 fcbd 1c24 d4bd d083 ce3d
00000310: a817 a6bd 1eec 23be 1193 4bbe 92d4 e13e
00000320: 47f8 e33d 996d 873e 34b8 9fbe c559 cebd
00000330: ee6d b83e 8740 21be b3c5 453d 8afd 70be
00000340: 2765 02bb 6c51 003e d7f5 aa3d 0a6f 60bc
00000350: e795 0f3e f5a1 cf3e c63f 283c 9573 e53c
00000360: f8a8 9ebd 3d44 4dbc 3692 273d 87d8 11bd
00000370: bc87 b7be d285 95be fadd e23d bccf 203e
00000380: 9ade 723d 0d58 50be e141 b83e bc45 d53d
00000390: e954 f53d 39b0 8f3e 6be3 8abe a20e 96be
000003a0: 132c e93d 0d58 313e 9ca7 913c 4b9e a03e
000003b0: bb7e 593e 731b 763e 263e c5bd 3eb4 2a3e
000003c0: 87f4 cb3c a1ba d23d 93f5 45be 5781 6cbd
000003d0: df04 d03d 7271 773e 3dca b3be 9c33 39bd
000003e0: 4fb2 dd3d 64fb a6be c131 973e f41d bc3c
000003f0: 3d28 7abe 6537 44be 71c5 263e bb1e 233e

backbone.3.bias f4 [128]
-0.115905456 -0.16242853 -0.09570687 -0.107429914 -0.20895727 -0.17601927 -0.2012847 -0.06832504
-0.17982122 -0.12049333 -0.05731221 -0.11111106 -0.14406553 -0.20814478 -0.07918813 -0.160438
-0.15928419 -0.15989685 -0.17858265 -0.15731996 -0.06732378 -0.11917153 -0.11295914 -0.16364153
-0.09548161 -0.16166261 -0.081630304 -0.09052043 -0.07687927 -0.19781043 -0.15947984 -0.0454484
-0.19199774 -0.048670147 -0.12629592 -0.162045 -0.19327632 -0.06273364 -0.17965107 -0.1398365
-0.11889797 -0.12928997 -0.1357959 -0.15672897 -0.20870082 -0.111306004 -0.03046599 -0.15517697
-0.13490131 -0.103475586 -0.19004206 -0.12345247 -0.107676834 -0.12672848 -0.057194155 -0.08046523
-0.12439173 -0.031287134 -0.1429863 -0.14366557 -0.127154 -0.09142082 -0.1678802 -0.1767914
-0.04914002 -0.18121663 -0.06961277 -0.1403374 -0.04729209 -0.14996281 -0.18130238 -0.113367274
-0.20272985 -0.09647705 -0.14137213 -0.15341695 -0.110523686 -0.1405876 -0.1669735 -0.14765137
-0.15145326 -0.10152608 -0.2065427 -0.1277624 0.007851123 -0.09077753 -0.18358377 -0.16482157
-0.1013922 -0.16027792 -0.1801974 -0.12082627 -0.12735315 -0.15390347 -0.14635792 -0.16286908
-0.060653154 -0.1382595 -0.18350554 -0.109731056 -0.010604097 -0.21366155 -0.18375812 -0.10697063
-0.10656625 -0.2071192 -0.164766 -0.0030726858 -0.13829036 -0.107887484 -0.15878467 -0.10622761
-0.17530091 -0.1332729 -0.116166584 -0.12146831 -0.197319 -0.19794537 -0.16287465 -0.072924234
-0.16806278 -0.17570233 -0.043450486 -0.069749184 -0.19314209 -0.18195173 -0.11152753 -0.12286293
00000000: d75f edbd aa53 26be f701 c4bd 3704 dcbd
00000010: e5f8 55be 653e 34be 941d 4ebe 00ee 8bbd
00000020: 0e23 38be 35c5 f6bd 35c0 6abd 328e e3bd
00000030: ea85 13be e823 55be 632d a2bd dc49 24be
00000040: 651b 23be 00bc 23be 5fde 36be 7c18 21be
00000050: 0de1 89bd 3410 f4bd 1f57 e7bd a591 27be
00000060: dd8b c3bd e28a 25be ca2d a7bd c662 b9bd
00000070: e172 9dbd d18e 4abe af4e 23be 1a28 3abd
00000080: 0e9b 44be 595a 47bd b853 01be 20ef 25be
00000090: 3aea 45be 7f7a 80bd 73f6 37be 4d31 0fbe
000000a0: c780 f3bd 9764 04be 150e 0bbe 8f7d 20be
000000b0: abb5 55be 67f4 e3bd d093 f9bc b6e6 1ebe
000000c0: 9223 0abe 02eb d3bd 639a 42be a6d4 fcbd
000000d0: ac85 dcbd 1cc5 01be 6b44 6abd f4ca a4bd
000000e0: 17c1 febd f026 00bd 006b 12be 111d 13be
000000f0: a834 02be d73a bbbd cae8 2bbe ce08 35be
00000100: 0c47 49bd da90 39be 2491 8ebd 9bb4 0fbe
00000110: 5ab5 41bd da8f 19be 55a7 39be 1a2d e8bd
00000120: 6a98 4fbe c295 c5bd dbc3 10be 5519 1dbe
00000130: 3e5a e2bd 32f6 0fbe 1afb 2abe ec31 17be
00000140: 9016 1bbe e8ec cfbd ee7f 53be 26d4 02be
00000150: ffa1 003c 92e9 b9bd 62fd 3bbe fcc6 28be
00000160: b7a6 cfbd e51f 24be ab85 38be c373 f7bd
00000170: dd68 02be df98 1dbe dade 15be 27c7 26be
00000180: 716f 78bd e693 0dbe e0e8 3bbe adba e0bd
00000190: cebc 2dbc 18ca 5abe 172b 3cbe 6b13 dbbd
000001a0: 683f dabd 0e17 54be 6bb8 28be 1d5f 49bb
000001b0: fd9b 0dbe 1df4 dcbd 7398 22be dc8d d9bd
000001c0: 1582 33be b178 08be bfe8 edbd 61c4 f8bd
000001d0: fe0d 4abe 31b2 4abe 9dc8 26be 4d59 95bd
000001e0: a618 2cbe 50eb 33be 23f9 31bd a9d8 8ebd
000001f0: 0ac7 45be 8e51 3abe 8c68 e4bd 8f9f fbbd

draw_head.weight f4 [2, 128]
0.036604732 -0.2507476 0.07264696 0.14017257 -0.024428621 0.19053063 0.048318483 0.08503399
0.118740074 -0.039000504 0.17378683 -0.12838945 -0.040724125 -0.109777965 -0.14752626 -0.110272676
-0.12306911 0.0022883213 -0.22262837 -0.31431243 0.18686588 0.16962175 -0.094263256 -0.17587522
0.00676156 0.042355955 -0.12246177 0.11612027 -0.13435373 -0.07107976 0.07770507 0.14214699
-0.17783713 0.12208 0.10915034 -0.0103879515 0.025116302 0.00074185146 -0.3943738 0.04822651
-0.041949105 0.0706897 -0.030296538 0.033301514 -0.1263222 0.08145176 -0.18964255 0.15823013
-0.059002187 -0.07316194 -0.110423915 0.0666561 0.066223964 0.17932372 -0.079875335 0.19115338
0.0523817 0.107486986 -0.2192964 -0.032196064 -0.15968804 0.08714175 0.024931453 0.103735514
0.076192 -0.34006652 0.14468627 -0.11094168 0.22898194 -0.038357276 -0.14140105 -0.06777302
-0.12558973 -0.13288125 -0.08177365 0.012058873 -0.23376857 -0.12849244 0.16689453 0.0829414
0.25699747 0.24308963 -0.387789 0.035317156 -0.18973607 0.19528112 -0.3787169 -0.12270147
0.057919376 -0.14253448 -0.004607721 -0.11164054 -0.08258808 0.18261747 -0.040799323 -0.19959173
-0.1382252 0.12162201 -0.01149861 0.028270273 -0.008468894 -0.06177679 -0.26828164 0.15242074
0.2546292 0.10501595 -0.16251668 0.013355334 0.074719906 -0.070096515 -0.3942384 -0.16415405
0.10460043 -0.17035075 0.0041504027 0.2823832 -0.33111987 0.19382082 -0.07458649 0.23466013
0.10893071 -0.026430476 0.07300771 0.036949273 0.044753574 -0.15451804 0.16220519 0.048246726
-0.020514792 0.09155373 -0.1032553 -0.008858298 -0.12364914 0.12274925 -0.024532693 -0.09881594
0.040436756 0.009348761 0.059633695 0.0055991733 -0.1012817 0.1581628 0.08004695 0.09515471
-0.04245375 0.15046637 -0.090589456 0.30019578 0.10202198 0.04897969 0.09824514 0.3151111
-0.22049432 0.18050064 0.087153494 -0.14564282 0.15791781 -0.039064515 0.08651066 -0.06487706
-0.15666595 0.14253923 -0.15492056 0.09532343 0.16305737 -0.0567657 0.25324598 -0.063070424
-0.12932304 0.18661389 -0.15953696 -0.21323012 0.34291896 0.056800216 -0.032895762 0.13111694
0.052700266 0.009153183 0.1834831 -0.2558862 0.05875794 -0.056504022 -0.1963419 0.06229593
-0.031130869 0.22038049 0.19366083 0.04719114 -0.16007535 0.16194749 0.20791914 0.079833835
0.19636746 0.2497755 0.14369832 -0.17735597 0.006073567 -0.07806849 0.12349345 -0.0379311
-0.0766034 -0.19616303 -0.12371277 -0.13512537 0.005556656 -0.019572563 0.17718789 -0.11695643
0.096079774 0.03901572 0.101566635 -0.05557156 -0.007281418 -0.05021952 0.41684052 -0.16780831
-0.082536206 0.2506182 -0.10114314 -0.03137409 -0.026270976 0.10063827 0.018149897 -0.19692251
0.025131349 -0.18926632 0.09402503 -0.16235474 -0.10599018 0.1730028 -0.038241714 0.09175017
0.060635928 0.0965063 -0.09719642 -0.124475494 0.008233599 -0.18304238 0.42684376 -0.15212166
0.097650565 -0.12781216 0.045160398 -0.08755862 0.17057024 -0.049637325 0.07123291 -0.0762052
-0.0056441673 0.03779757 -0.04249867 -0.23290521 0.08843245 -0.054574806 0.08090875 -0.2500767
00000000: d8ee 153d fd61 80be eec7 943d 6689 0f3e
00000010: 881e c8bc 761a 433e 9ae9 453d 4d26 ae3d
00000020: ff2d f33d febe 1fbd 2df5 313e 8678 03be
00000030: 57ce 26bd 45d3 e0bd 2011 17be a4d6 e1bd
00000040: a80b fcbd a9f7 153b b1f8 63be 8fed a0be
00000050: c559 3f3e 53b1 2d3e 180d c1bd a218 34be
00000060: 1490 dd3b 707d 2d3d 3dcd fabd 77d0 ed3d
00000070: 0694 09be 4492 91bd d623 9f3d fb8e 113e
00000080: f01a 36be 1405 fa3d 378a df3d 3a32 2abc
00000090: b4c0 cd3c cf78 423a 5deb c9be 2989 453d
000000a0: d3d2 2bbd c3c5 903d 7230 f8bc 2b67 083d
000000b0: 9b5a 01be 2ed0 a63d a831 42be 1407 223e
000000c0: 47ac 71bd edd5 95bd ef25 e2bd fe82 883d
000000d0: 6ea0 873d a3a0 373e ae95 a3bd b6bd 433e
000000e0: 328e 563d 2322 dc3d 3c8f 60be 05e0 03bd
000000f0: 4385 23be 6077 b23d 0c3d cc3c 4973 d43d
00000100: 8d0a 9c3d 331d aebe a328 143e 6435 e3bd
00000110: 3e7a 6a3e 851c 1dbd 70cb 10be 95cc 8abd
00000120: 989a 00be 0612 08be f278 a7bd 9492 453c
00000130: 0761 6fbe 8693 03be 66e6 2a3e 2edd a93d
00000140: 2c95 833e 7dec 783e 488c c6be b9a8 103d
00000150: 2c4a 42be c6f7 473e 2ee7 c1be e94a fbbd
00000160: de3c 6d3d 8ff4 11be 5efc 96bb cca3 e4bd
00000170: f023 a9bd 1300 3b3e 311d 27bd c661 4cbe
00000180: e88a 0dbe f614 f93d aa64 3cbc 0f97 e73c
00000190: 1ec1 0abc a909 7dbd 365c 89be 2f14 1c3e
000001a0: c25e 823e 9a12 d73d c66a 26be 55d0 5a3c
000001b0: c006 993d c38e 8fbd 9ed9 c9be 0018 28be
000001c0: c038 d63d 6d70 2ebe 1a00 883b 8894 903e
000001d0: 8b88 a9be f778 463e cdc0 98bd bf4a 703e
000001e0: 1017 df3d ba84 d8bc 1185 953d 1f58 173d
000001f0: 864f 373d fa39 1ebe 1e19 263e 5c9e 453d
00000200: a30e a8bc 8680 bb3d 8477 d3bd 6522 11bc
00000210: c33b fdbd f563 fb3d c9f8 c8bc 0360 cabd
00000220: 03a1 253d 8c2b 193c 7642 743d 4579 b73b
00000230: c86c cfbd 6ef5 213e a8ef a33d 79e0 c23d
00000240: fce3 2dbd db13 1a3e f786 b9bd 43b3 993e
00000250: e6f0 d03d ed9e 483d bf34 c93d 3e56 a13e
00000260: 43c9 61be 29d5 383e 887d b23d 6423 15be
00000270: 35b5 213e 1d02 20bd 802c b13d 44de 84bd
00000280: 0a6d 20be cef5 113e 7fa3 1ebe ee38 c33d
00000290: 83f8 263e 2783 68bd 75a9 813e 112b 81bd
000002a0: 426d 04be b617 3f3e a85d 23be ff58 5abe
000002b0: 1393 af3e 58a7 683d b5bd 06bd 8543 063e
000002c0: 3cdc 573d 3bf7 153c fee2 3b3e 8403 83be
000002d0: 2aac 703d c370 67bd da0d 49be 042a 7f3d
000002e0: 2a06 ffbc 6cab 613e 064f 463e 7f4b 413d
000002f0: cbea 23be 90d5 253e c1e8 543e ec7f a33d
00000300: 8d14 493e 26c5 7f3e a725 133e ce9c 35be
00000310: c604 c73b 5fe2 9fbd 22ea fc3d a45d 1bbd
00000320: 3ee2 9cbd f6de 48be 1f5d fdbd 4e5e 0abe
00000330: 9c14 b63b a456 a0bc be70 353e da86 efbd
00000340: 79c5 c43d f3ce 1f3d 2b02 d03d 019f 63bd
00000350: f698 eebb fcb2 4dbd 1f6c d53e f1d5 2bbe
00000360: be08 a9bd 0751 803e 2224 cfbd 1e82 00bd
00000370: 3b36 d7bc 701b ce3d 18af 943c 0ea6 49be
00000380: 42e0 cd3c 08cf 41be 3290 c03d 5240 26be
00000390: 6111 d9bd a527 313e 58a3 1cbd 83e7 bb3d
000003a0: 615d 783d 18a5 c53d eb0e c7bd 02ed febd
000003b0: 38e6 063c 766f 3bbe 448b da3e c8c5 1bbe
000003c0: 05fd c73d 31e1 02be 1cfa 383d ef51 b3bd
000003d0: f7a9 2e3e 8250 4bbd 8fe2 913d 7911 9cbd
000003e0: b5f2 b8bb a0d1 1a3d 1613 2ebd b47e 6ebe
000003f0: 131c b53d d589 5fbd 7db3 a53d 0e0a 80be

draw_head.bias f4 [2]
0.079373665 -0.079373956
00000000: a98e a23d d08e a2bd

discard_head.weight f4 [4, 128]
0.14428644 -0.18658659 0.1300444 -0.07029201 -0.0046790596 -0.05527965 0.0009608857 -0.23259862
0.136128 0.16626386 -0.010849925 0.06744123 -0.0044795224 0.055992074 -0.018307041 0.13831969
-0.034124725 0.113751955 -0.03032259 -0.043492552 -0.10929984 -0.18658288 -0.1066645 -0.12113016
-0.06728919 0.047872297 0.14127785 0.07192235 0.077596344 0.107008904 -0.019657217 -0.07854341
0.1403927 0.0066772546 0.034523405 0.16761054 -0.117779806 -0.0089578815 0.09479224 0.10534993
-0.14593178 -0.0107203415 0.013626608 -0.13707037 0.14445792 -0.03377456 0.023860833 -0.14053598
-0.07552049 -0.15541099 -0.06394383 -0.1679361 -0.079466745 -0.06310768 0.05890142 -0.14463085
-0.10882912 -0.08280866 -0.14107499 -0.014521789 0.007987219 0.05435904 -0.057477254 -0.070472404
-0.052229825 0.055011068 -0.0011214413 -0.04986612 -0.17908023 -0.25285652 0.03549523 -0.1029179
-0.20897517 0.16369148 -0.07158397 0.14311063 -0.20680036 0.15007947 0.08536356 0.019404858
0.07415372 -0.01372945 -0.18938681 -0.05592903 -0.019669246 -0.030229883 -0.18780006 0.19356367
-0.014187234 -0.1873783 0.007785391 -0.106186636 -0.023443058 -0.004671371 -0.2386355 -0.117408074
-0.08211951 0.006258256 0.033073682 -0.19704312 -0.09995857 -0.21644488 -0.09108344 -0.058841173
-0.11071213 0.0732624 -0.07955377 -0.03470567 -0.08148903 0.032564867 0.07486222 0.092040375
-0.25723696 -0.16799232 -0.0005562118 -0.07208863 -0.20347954 -0.027973976 0.054419726 -0.05506948
-0.016964862 0.12333665 -0.09986727 -0.019756854 0.09570984 -0.0053431354 -0.06683968 -0.20106883
0.085895434 -0.14207868 0.1519024 -0.22545324 -0.04126885 0.10488988 -0.064213604 -0.05689526
0.13120753 -0.08398617 0.079328746 -0.08756899 -0.1255159 0.14914833 -0.07685117 -0.114064425
-0.14788064 -0.052421637 -0.005501385 -0.066156045 0.022669706 0.091281265 0.103732444 0.021247713
-0.058285974 0.08733018 0.14372237 -0.18113297 0.027930422 0.0767373 -0.17172852 0.05047322
-0.05283121 0.066793 -0.1120458 0.013427396 -0.110746056 0.051041916 0.05884673 -0.13992718
-0.20673943 -0.09779411 0.04480851 -0.0048254766 0.14080396 -0.106047854 -0.0423558 -0.117450036
-0.1349484 -0.093464814 -0.20751563 -0.043276716 0.063977525 -0.1777919 0.087932974 0.102095716
-0.19453366 -0.026213473 -0.28229755 -0.036123086 -0.11175983 -0.25137547 -0.022986196 0.18125834
-0.15649888 -0.15434535 0.009389275 -0.10026487 0.027714118 -0.057885636 -0.10447217 -0.009911666
-0.008516064 0.18652949 -0.18154013 -0.083682604 -0.05882782 -0.0033429463 -0.07189174 0.01366397
0.2224032 -0.016490769 -0.14455749 -0.090335906 -0.00957328 0.042715043 -0.15043221 0.021978209
-0.045168575 -0.02362722 0.15107347 0.008415404 0.023670444 0.053887896 -0.07887308 0.07954239
-0.030682895 -0.028963804 0.14680178 -0.19862582 0.04547114 -0.07779921 -0.021479465 0.17164288
-0.06448011 -0.12186409 0.0279156 0.044996817 0.1292101 -0.1199847 -0.024050036 0.120920174
-0.13732119 0.15988678 0.07218842 -0.020778166 -0.35339323 0.11449498 0.07987859 0.05751276
-0.03101836 -0.021014327 -0.23528326 0.07854263 0.07136017 -0.012665063 0.1829279 -0.0190617
00000000: d3bf 133e 8e10 3fbe 5c2a 053e 42f5 8fbd
00000010: cc52 99bb ea6c 62bd f3e3 7b3a 552e 6ebe
00000020: 2365 0b3e 1341 2a3e e2c3 31bc a11e 8a3d
00000030: f5c8 92bb f257 653d a6f8 95bc ada3 0d3e
00000040: 5ec6 0bbd c9f6 e83d 1567 f8bc 3f25 32bd
00000050: 98d8 dfbd 950f 3fbe eb72 dabd 1713 f8bd
00000060: eace 89bd be15 443d 24ab 103e 064c 933d
00000070: d5ea 9e3d 7c27 db3d 2c08 a1bc 5edb a0bd
00000080: 1bc3 0f3e dfcc da3b 6a68 0d3d 19a2 2b3e
00000090: 8a36 f1bd 14c4 12bc 6f22 c23d b4c1 d73d
000000a0: 246f 15be 5fa4 2fbc 2342 5f3c 2d5c 0cbe
000000b0: c7ec 133e 3157 0abd cb77 c33c aae8 0fbe
000000c0: 7daa 9abd 0f24 1fbe fcf4 82bd 71f7 2bbe
000000d0: 76bf a2bd 993e 81bd 9e42 713d 1c1a 14be
000000e0: cde1 debd 9697 a9bd f675 10be ccec 6dbc
000000f0: d3dc 023c 96a7 5e3d 456d 6bbd d653 90bd
00000100: f1ee 55bd 4953 613d 53fd 92ba 6b40 4cbd
00000110: cf60 37be 6976 81be 7263 113d 9fc6 d2bd
00000120: 96fd 55be bd9e 273e 9e9a 92bd 988b 123e
00000130: 79c3 53be 6fae 193e 17d3 ae3d f0f6 9e3c
00000140: e8dd 973d 7df1 60bc 9eee 41be d715 65bd
00000150: 6621 a1bc a9a4 f7bc a94e 40be 8e35 463e
00000160: 9371 68bc 19e0 3fbe 981c ff3b 6178 d9bd
00000170: a80b c0bc 4d12 99bb dd5c 74be a573 f0bd
00000180: 462e a8bd 0e12 cd3b 4578 073d acc5 49be
00000190: 14b7 ccbd baa3 5dbe f489 babd 7103 71bd
000001a0: 0bbd e2bd 990a 963d 16ed a2bd 8827 0ebd
000001b0: b8e3 a6bd bd62 053d 5d51 993d aa7f bc3d
000001c0: 90b4 83be 2e06 2cbe bece 11ba 34a3 93bd
000001d0: f15c 50be ae29 e5bc 38e7 5e3d 8990 61bd
000001e0: e5f9 8abc ed97 fc3d 3687 ccbd 20d9 a1bc
000001f0: 8503 c43d 7815 afbb 3ee3 88bd fde4 4dbe
00000200: f2e9 af3d 137d 11be 4e8c 1b3e 37dd 66be
00000210: 8709 29bd 81d0 d63d 6c82 83bd 010b 69bd
00000220: 445b 063e f100 acbd 1c77 a23d 5f57 b3bd
00000230: 3d87 00be 57ba 183e 2564 9dbd 9c9a e9bd
00000240: 066e 17be 12b8 56bd f644 b4bb d27c 87bd
00000250: d2b5 b93c acf1 ba3d ad71 d43d af0f ae3c
00000260: 46bd 6ebd 2ada b23d f52b 133e ec7a 39be
00000270: 57ce e43c 7228 9d3d 9ad9 2fbe 02bd 4e3d
00000280: 8a65 58bd c5ca 883d 4578 e5bd 95fe 5b3c
00000290: d4ce e2bd 5411 513d 4509 713d 1249 0fbe
000002a0: 80b3 53be 4748 c8bd 2189 373d 081f 9ebb
000002b0: ea2e 103e 9e2f d9bd 467d 2dbd a589 f0bd
000002c0: ea2f 0abe 7b6a bfbd fa7e 54be ed42 31bd
000002d0: a606 833d 140f 36be 3416 b43d 8f17 d13d
000002e0: d533 47be a3bd d6bc 4e89 90be cdf5 13bd
000002f0: 56e2 e4bd 49b4 80be 8c4d bcbc c99b 393e
00000300: 3e41 20be b50c 1ebe 79d5 193c ab57 cdbd
00000310: b808 e33c 7d19 6dbd 81f5 d5bd 8a64 22bc
00000320: f686 0bbc 9601 3f3e a8e5 39be c961 abbd
00000330: 71f5 70bd 5515 5bbb fa3b 93bd d8de 5f3c
00000340: aabd 633e a617 87bc e106 14be 0802 b9bd
00000350: 3fd9 1cbc f8f5 2e3d e70a 1abe a50b b43c
00000360: af02 39bd df8d c1bc 01b3 1a3e c3e0 093c
00000370: 85e8 c13c 8eb9 5c3d 3688 a1bd 1fe7 a23d
00000380: b25a fbbc 8045 edbc 3553 163e 9164 4bbe
00000390: f23f 3a3d 3155 9fbd b4f5 afbc 27c3 2f3e
000003a0: 260e 84bd e193 f9bd 42af e43c 954e 383d
000003b0: a74f 043e 8aba f5bd 9504 c5bc ffa4 f73d
000003c0: ed9d 0cbe 5cb9 233e 86d7 933d f936 aabc
000003d0: f5ef b4be 587c ea3d 6397 a33d 8092 6b3d
000003e0: 371a febc 3d26 acbc 18ee 70be f5da a03d
000003f0: 4825 923d 2081 4fbc 7451 3b3e 4827 9cbc

discard_head.bias f4 [4]
-0.09463546 -0.017727267 -0.07700809 0.14535154
00000000: 3cd0 c1bd c638 91bc 6bb6 9dbd 09d7 143e

stop_head.weight f4 [2, 128]
0.10566584 0.15546483 0.18852118 0.06475206 -0.015895847 -0.125318 0.08986416 -0.012536666
0.23455237 -0.018716361 0.12037078 0.10618553 -0.043126892 -0.040102404 -0.08686602 0.057266925
-0.057701323 -0.10170024 -0.056925878 -0.025732858 -0.10148959 -0.020807631 -0.24831866 0.11603722
-0.040735215 0.065821126 0.10544193 0.05305195 -0.117865875 0.110073924 0.0005329177 -0.04931811
-0.07284248 0.3332915 0.2388615 -0.027750557 0.0368898 -0.1709439 0.032613464 0.08123269
0.16064543 0.008645748 -0.05574282 -0.20231141 0.0805542 0.19248386 -0.18105395 -0.076701686
0.03262056 0.092490345 -0.052599754 -0.029738644 -0.11037621 -0.20528333 0.04871153 0.09146808
0.009637414 0.19413729 -0.09978917 0.004306927 -0.085172966 -0.11079156 -0.14178355 0.038887855
0.02958636 0.17163482 -0.04033328 -0.032316264 -0.015225499 0.020136274 -0.17592278 0.05906373
0.15283053 0.035745636 -0.12002528 -0.036736973 0.27667564 -0.14250141 -0.16194683 -0.20711008
0.36565658 -0.057672862 -0.015814422 -0.17264804 -0.050125174 0.04123702 0.033973407 0.15616879
0.011442465 0.27000275 -0.08248141 0.1368926 -0.15064825 0.122633755 -0.10898726 0.13060893
-0.15249884 0.12236505 0.04046787 -0.12733564 -0.13283499 -0.08171525 0.034275003 -0.092111506
0.26615775 0.013466524 0.04986345 -0.09651494 0.26664 0.2554382 -0.067811914 -0.1179325
-0.007387028 0.20967749 0.12975365 0.10105967 0.1725039 -0.06850871 0.07566307 -0.07252247
-0.08814775 -0.03793991 -0.06789662 -0.18235229 0.09793824 0.11246796 -0.0012929338 0.3495296
-0.08770375 0.026153592 0.14203851 0.16136421 0.012399024 0.08441177 0.079336844 -0.24702132
-0.17138836 -0.13772199 0.110663965 0.094083294 -0.35670966 -0.06921862 0.0065139863 0.20401235
-0.04153535 0.032362133 -0.077132195 -0.06629329 0.069486365 -0.071041554 -0.02758362 -0.043672834
0.026466032 0.050826035 -0.018752696 0.21122323 0.11867127 0.014051141 -0.095016554 -0.19203581
0.103325434 -0.3867632 0.011927542 -0.10830024 -0.12012883 -0.00415825 -0.055370864 -0.0361207
-0.10135615 -0.04966973 0.014110469 -0.207259 0.25601172 0.06595179 0.066014156 0.16910002
0.02120944 0.10198848 0.17886384 -0.039589364 0.07115838 0.07579203 0.14623018 0.083958976
-0.018196627 0.047836952 -0.1915438 0.093555376 0.019630931 0.13547577 0.06487254 -0.11190176
0.012661187 -0.18567261 0.15279654 -0.15395251 -0.106678165 0.063274644 -0.14078721 -0.15387236
0.00012108605 -0.029557018 -0.16632815 0.13147572 0.13514256 -0.10595578 -0.12188751 -0.04665825
-0.43206555 0.07400256 0.004967341 -0.078743674 -0.102203324 -0.1278291 -0.038005523 0.044945013
0.0750866 -0.1947604 -0.031842537 -0.072864495 0.16509183 -0.11849212 0.14185748 -0.0928495
0.1611167 0.078274794 -0.0114155235 -0.14254479 -0.017063394 0.098942116 0.08591076 0.07644592
-0.21659781 -0.06190345 0.04791948 -0.18539473 -0.41193843 -0.18288583 0.017117934 -0.07786732
0.059978537 0.17439862 0.1296532 0.2410724 0.022998573 0.05320965 -0.1979107 -0.03185888
-0.10529529 0.08008314 -0.085057445 -0.021442438 0.12696972 0.179885 -0.27270815 0.04220014
00000000: 5567 d83d 2c32 1f3e b20b 413e ba9c 843d
00000010: 0238 82bc 5d53 00be b30a b83d 9766 4dbc
00000020: 7f2e 703e 0e53 99bc f584 f63d cd77 d93d
00000030: d3a5 30bd 6b42 24bd d0e6 b1bd b990 6a3d
00000040: 3958 6cbd 3748 d0bd 1c2b 69bd b7cd d2bc
00000050: c6d9 cfbd c474 aabc 3f47 7ebe eca4 ed3d
00000060: f8d9 26bd 3acd 863d f0f1 d73d 004d 593d
00000070: aa63 f1bd 706e e13d 80b3 0b3a c901 4abd
00000080: 702e 95bd 2fa5 aa3e 1c98 743e 2355 e3bc
00000090: c219 173d eb0b 2fbe b295 053d 535d a63d
000000a0: 3c80 243e e5a6 0d3c 9552 64bd b92a 4fbe
000000b0: 9af9 a43d 7d1a 453e 3566 39be c615 9dbd
000000c0: 239d 053d 946b bd3d d772 57bd 759e f3bc
000000d0: ec0c e2bd cb35 52be be85 473d 9e53 bb3d
000000e0: 3ee6 1d3c edcb 463e 445e ccbd 1f21 8d3b
000000f0: 2a6f aebd afe6 e2bd b52f 11be df48 1f3d
00000100: 185f f23c 0ac1 2f3e 8234 25bd 0f5e 04bd
00000110: 5f74 79bc d4f4 a43c 1a25 34be cfec 713d
00000120: 9b7f 1c3e 046a 123d d0cf f5bd 8279 16bd
00000130: 6ea8 8d3e e4eb 11be 64d5 25be aa14 54be
00000140: 5737 bb3e 613a 6cbd 3f8d 81bc a6ca 30be
00000150: 0e50 4dbd 26e8 283d b327 0b3d b6ea 1f3e
00000160: 2d79 3b3c cd3d 8a3e 03ec a8bd 932d 0c3e
00000170: 8943 1abe 6827 fb3d b634 dfbd 59be 053e
00000180: a828 1cbe 879a fa3d a3c1 253d 4664 02be
00000190: e505 08be 535a a7bd f263 0c3d f5a4 bcbd
000001a0: d445 883e b2a2 5c3c 9e3d 4c3d a0a9 c5bd
000001b0: 0a85 883e ccc8 823e f9e0 8abd 9886 f1bd
000001c0: e20e f2bb b2b5 563e 24de 043e 5ff8 ce3d
000001d0: dda4 303e 4b4e 8cbd 3df5 9a3d a986 94bd
000001e0: cf86 b4bd e166 1bbd 620d 8bbd 8fba 3abe
000001f0: d893 c83d 9a55 e63d a977 a9ba 8bf5 b23e
00000200: 069e b3bd 0f40 d63c 8b72 113e a93c 253e
00000210: 4725 4b3c 14e0 ac3d 5b7b a23d 28f3 7cbe
00000220: 6e80 2fbe fe06 0dbe caa3 e23d beae c03d
00000230: a6a2 b6be 7ec2 8dbd 4773 d53b 9de8 503e
00000240: f920 2abd 288e 043d 7cf7 9dbd c7c4 87bd
00000250: de4e 8e3d 3c7e 91bd 0bf7 e1bc 49e2 32bd
00000260: 4bcf d83c f62e 503d 419f 99bc e74a 583e
00000270: ec09 f33d c236 663c 0a98 c2bd 09a5 44be
00000280: 499c d33d d305 c6be bd6b 433c 84cc ddbd
00000290: 1b06 f6bd ee41 88bb 8fcc 62bd 4df3 13bd
000002a0: d093 cfbd 7d72 4bbd 992f 673c b43b 54be
000002b0: f813 833e bb11 873d 6e32 873d 8e28 2d3e
000002c0: 6bbf ad3c 56df d03d 1528 373e 7528 22bd
000002d0: 7cbb 913d da38 9b3d 5dbd 153e aff2 ab3d
000002e0: 1811 95bc aef0 433d 0f24 44be f699 bf3d
000002f0: 0cd1 a03c 29ba 0a3e e5db 843d c02c e5bd
00000300: de70 4f3c f620 3ebe b276 1c3e baa5 1dbe
00000310: 157a dabd 2396 813d 862a 10be b790 1dbe
00000320: 94ef fd38 8f21 f2bc ed51 2abe 92a1 063e
00000330: d062 0a3e 58ff d8bd 29a0 f9bd b91c 3fbd
00000340: b237 ddbe a78e 973d 14c5 a23b 5d44 a1bd
00000350: fa4f d1bd a2e5 02be aeab 1bbd 4318 383d
00000360: 01c7 993d 456f 47be 526d 02bd fb39 95bd
00000370: d50d 293e ffab f2bd 1643 113e e127 bebd
00000380: c7fb 243e 894e a03d 2d08 3bbc 43f7 11be
00000390: 88c8 8bbc 2aa2 ca3d fbf1 af3d ae8f 9c3d
000003a0: d1cb 5dbe 798e 7dbd 3747 443d 1ed8 3dbe
000003b0: 98e9 d2be 6c46 3bbe e93a 8c3c e778 9fbd
000003c0: 0eac 753d 8d95 323e cfc3 043e afdb 763e
000003d0: 8167 bc3c 5df2 593d 1aa9 4abe 757e 02bd
000003e0: 0fa5 d7bd a102 a43d 9932 aebd 0da8 afbc
000003f0: 5a04 023e c633 383e 67a0 8bbe 0eda 2c3d

stop_head.bias f4 [2]
-0.18658695 0.18658657
00000000: a610 3fbe 8d10 3f3e
